RB_PCA_Params.npz (npz, 39286 bytes, 4 tensors)

M (column-major) f8 [201, 11]
-6.974375290005099e-05 -7.436616659273052e-05 -7.93527096341146e-05 -8.47367672384344e-05 -9.055522881961964e-05 -9.684890250927628e-05 -0.0001036629837288514 -0.00011104758512309271
-0.00011905833621859704 -0.0001277570619689047 -0.00013721255041823478 -0.00014750142049558794 -0.00015870910169602892 -0.00017093093775419438 -0.000184273426246209 -0.00019885560502583494
-0.0002148105940972515 -0.00023228729736094776 -0.00025145226187654534 -0.00027249168183480094 -0.0002956135189943609 -0.0003210496892097302 -0.0003490582336995508 -0.00037992535119679043
-0.0004139671098009567 -0.0004515305812650271 -0.000492994040928224 -0.0005387657481742926 -0.0005892806590637841 -0.0006449942180591589 -0.000706372122550107 -0.000773874645289062
-0.0008479337295059112 -0.0009289206343778921 -0.00101710140201288 -0.0011125768421443372 -0.001215203093573098 -0.0013244881355457393 -0.0014394589107887003 -0.0015584930201989215
-0.00167910830785535 -0.0017977031433074745 -0.0019092399173489237 -0.0020068643147676786 -0.002081453459232595 -0.0021210872205503347 -0.002110439047628407 -0.002030085894122709
-0.0018557414296991668 -0.0015574231096417942 -0.0010985721800287193 -0.00043515673440311565 0.00048519804049323637 0.0017239907956234954 0.003352452973139526 0.0054518764546404135
0.008113518983117475 0.011437908435267015 0.015533321253377102 0.02051315487403911 0.026491845983520966 0.033578901747528735 0.04187050383182427 0.051438006631941806
0.06231247020737271 0.07446413010781784 0.08777539267864193 0.1020055366852805 0.11674478647732929 0.13135480489278048 0.14489199819932014 0.15600953440355336
0.16283419994701653 0.16281654469349086 0.15256056666116014 0.12766038493577828 0.08262343810787143 0.011077267589837356 -0.09330761855217935 -0.2343761115976488
-0.4085095833388969 -0.5973438803896631 -0.7635346746132159 -0.8610738090666258 -0.8615709109030094 -0.7712063814508557 -0.6195868724932193 -0.4386022418613468
-0.25166987466537294 -0.073241988243981 0.08828398839100417 0.22789957740711553 0.34234158048110475 0.4293101546577254 0.4873198700259261 0.516092566779748
0.517507777255245 0.4970384961617801 0.46504094924387906 0.43612961608844586 0.4244693583720653 0.43612961608844586 0.46504094924387906 0.4970384961617801
0.517507777255245 0.516092566779748 0.4873198700259261 0.4293101546577254 0.34234158048110475 0.22789957740711553 0.08828398839100417 -0.073241988243981
-0.25166987466537294 -0.4386022418613468 -0.6195868724932193 -0.7712063814508557 -0.8615709109030094 -0.8610738090666258 -0.7635346746132159 -0.5973438803896631
-0.4085095833388969 -0.2343761115976488 -0.09330761855217935 0.011077267589837356 0.08262343810787143 0.12766038493577828 0.15256056666116014 0.16281654469349086
0.16283419994701653 0.15600953440355336 0.14489199819932014 0.13135480489278048 0.11674478647732929 0.1020055366852805 0.08777539267864193 0.07446413010781784
0.06231247020737271 0.051438006631941806 0.04187050383182427 0.033578901747528735 0.026491845983520966 0.02051315487403911 0.015533321253377102 0.011437908435267015
0.008113518983117475 0.0054518764546404135 0.003352452973139526 0.0017239907956234954 0.00048519804049323637 -0.00043515673440311565 -0.0010985721800287193 -0.0015574231096417942
-0.0018557414296991668 -0.002030085894122709 -0.002110439047628407 -0.0021210872205503347 -0.002081453459232595 -0.0020068643147676786 -0.0019092399173489237 -0.0017977031433074745
-0.00167910830785535 -0.0015584930201989215 -0.0014394589107887003 -0.0013244881355457393 -0.001215203093573098 -0.0011125768421443372 -0.00101710140201288 -0.0009289206343778921
-0.0008479337295059112 -0.000773874645289062 -0.000706372122550107 -0.0006449942180591589 -0.0005892806590637841 -0.0005387657481742926 -0.000492994040928224 -0.0004515305812650271
-0.0004139671098009567 -0.00037992535119679043 -0.0003490582336995508 -0.0003210496892097302 -0.0002956135189943609 -0.00027249168183480094 -0.00025145226187654534 -0.00023228729736094776
-0.0002148105940972515 -0.00019885560502583494 -0.000184273426246209 -0.00017093093775419438 -0.00015870910169602892 -0.00014750142049558794 -0.00013721255041823397 -0.00012775706196894047
-0.00011905833621856854 -0.00011104758512334982 -0.00010366298372816806 -9.684890251002431e-05 -9.055522881908566e-05 -8.47367672390725e-05 -7.935270963329384e-05 -7.436616659148235e-05
-6.974375290005102e-05 6.577120409750278e-05 7.047386924766189e-05 7.558593915485134e-05 8.115023708898203e-05 8.721493928565351e-05 9.383437360020612e-05 0.00010106996045779403
0.0001089913229822563 0.00011767760405217958 0.000127219030799569 0.0001377187807926791 0.00014929521215824835 0.00016208453467565247 0.0001762440133902673 0.00019195581378020276
0.00020943161654123353 0.00022891815044578606 0.0002507038121110755 0.00027512656025114137 0.0003025832859789638 0.0003335408657934074 0.00036854909376735366 0.00040825565567925227
0.0004534232388351639 0.0005049487521105661 0.0005638844420299189 0.0006314604085705766 0.0007091076205076064 0.0007984799709159973 0.0009014731627073196 0.0010202372334962918
0.0011571782828009994 0.0013149434241405793 0.0014963811368255426 0.0017044670491928309 0.0019421827979505364 0.0022123330819169167 0.0025172835404809035 0.0028585999051542487
0.0032365673725032558 0.003649568825255288 0.0040933020081951235 0.0045598197868185 0.005036385012398767 0.0055041431602216185 0.005936632632553317 0.006298175105441599
0.0065422169264236826 0.0066097272267687576 0.006427798287579451 0.005908637059762669 0.004949180718628978 0.003431609579894375 0.0012250621192376842 -0.001811127497778244
00000000: bc05 1d8d 6c48 12bf 94ff 8603 a17e 13bf
00000010: 69c2 c02b 45cd 14bf fee5 8393 9636 16bf
00000020: 4c1f 2cfc 0ebd 17bf 2901 c979 6b63 19bf
00000030: 9d57 eb7f b42c 1bbf 3e30 51fc 461c 1dbf
00000040: 315b 39a4 de35 1fbf 79a3 54ce d0be 20bf
00000050: c3c3 52d5 16fc 21bf 8f91 e58d 5355 23bf
00000060: 5851 7fcd 64cd 24bf 23fc 3693 7d67 26bf
00000070: c416 b2ad 3027 28bf 50dc f2a3 7c10 2abf
00000080: bc73 f5f3 d827 2cbf 3fb5 ddb0 4472 2ebf
00000090: d98a c33d ab7a 30bf 4f4c a6dc a6db 31bf
000000a0: f54a 7665 925f 33bf ac45 61ea 510a 35bf
000000b0: 683e b9b2 39e0 36bf 86e7 53f5 16e6 38bf
000000c0: ad33 be32 3721 3bbf f4b8 6514 6d97 3dbf
000000d0: cc61 36a4 8827 40bf d8ed 61a2 7ea7 41bf
000000e0: 6302 5594 3e4f 43bf d25a 4d89 9a22 45bf
000000f0: 8cec 2395 7a25 47bf 5bda 7725 bb5b 49bf
00000100: 936d 96d1 fbc8 4bbf 51c8 63df 5970 4ebf
00000110: ddfc 8850 08aa 50bf 1fd9 ae49 7c3a 52bf
00000120: 1d8d df62 eee8 53bf bd91 784e 4eb3 55bf
00000130: 868c 873c 8795 57bf 870d 6123 cb88 59bf
00000140: 3c10 32d1 b082 5bbf 3fc9 560d 1d74 5dbf
00000150: f5b5 55c0 ee47 5fbf ba95 2e13 b370 60bf
00000160: e439 23d1 1f0d 61bf 9eb5 d007 3e60 61bf
00000170: e08e 1256 e949 61bf 441a bf10 66a1 60bf
00000180: a364 0630 8b67 5ebf efc3 9a54 4e84 59bf
00000190: bc23 79e5 beff 51bf 239a 61f1 b784 3cbf
000001a0: bfe3 4bb7 45cc 3f3f 8ee0 7d05 f13e 5c3f
000001b0: 9040 317c 9a76 6b3f 8c34 31f1 b454 763f
000001c0: a7f3 8015 d29d 803f 311b 5015 c26c 873f
000001d0: a98b 4016 efcf 8f3f f480 4985 6601 953f
000001e0: 6687 70b0 ad20 9b3f 1db6 aef9 4031 a13f
000001f0: 57dc 3ff9 0c70 a53f c7e0 8218 1556 aa3f
00000200: 5ce7 588b 6be7 af3f 49c5 89cb 1410 b33f
00000210: 6cc5 f2b8 7278 b63f 4cff 12ec 081d ba3f
00000220: c50c e67f fce2 bd3f 13ee 97f7 3bd0 c03f
00000230: 06ed db2c d28b c23f 3c50 10d4 1ef8 c33f
00000240: 64ac b845 c0d7 c43f e966 5a2b 2cd7 c43f
00000250: 4405 3cca 1a87 c33f c99f 25ed 2c57 c03f
00000260: 706f 8e44 cf26 b53f 6519 38b0 adaf 863f
00000270: 7535 2612 02e3 b7bf 2745 2353 0900 cebf
00000280: f3c2 2261 0525 dabf aaa8 d7e9 701d e3bf
00000290: a86c 1a45 e06e e8bf 0b44 2ca9 ea8d ebbf
000002a0: 686d b028 fd91 ebbf 9d88 5901 b9ad e8bf
000002b0: 2375 4cd9 a7d3 e3bf 06cb 2f23 0f12 dcbf
000002c0: 64e0 44f6 5b1b d0bf b1b0 33a8 fcbf b2bf
000002d0: b959 e68a c799 b63f 182e de37 d02b cd3f
000002e0: 088c 0ea9 ece8 d53f d81e 864c d179 db3f
000002f0: ddf2 1cae 3f30 df3f 08e3 008f d483 e03f
00000300: ee94 5778 6c8f e03f 228b 778d 7acf df3f
00000310: 8e68 131d 3bc3 dd3f a9ae 7a31 8ce9 db3f
00000320: 0b2d 1787 812a db3f a9ae 7a31 8ce9 db3f
00000330: 8e68 131d 3bc3 dd3f 228b 778d 7acf df3f
00000340: ee94 5778 6c8f e03f 08e3 008f d483 e03f
00000350: ddf2 1cae 3f30 df3f d81e 864c d179 db3f
00000360: 088c 0ea9 ece8 d53f 182e de37 d02b cd3f
00000370: b959 e68a c799 b63f b1b0 33a8 fcbf b2bf
00000380: 64e0 44f6 5b1b d0bf 06cb 2f23 0f12 dcbf
00000390: 2375 4cd9 a7d3 e3bf 9d88 5901 b9ad e8bf
000003a0: 686d b028 fd91 ebbf 0b44 2ca9 ea8d ebbf
000003b0: a86c 1a45 e06e e8bf aaa8 d7e9 701d e3bf
000003c0: f3c2 2261 0525 dabf 2745 2353 0900 cebf
000003d0: 7535 2612 02e3 b7bf 6519 38b0 adaf 863f
000003e0: 706f 8e44 cf26 b53f c99f 25ed 2c57 c03f
000003f0: 4405 3cca 1a87 c33f e966 5a2b 2cd7 c43f
00000400: 64ac b845 c0d7 c43f 3c50 10d4 1ef8 c33f
00000410: 06ed db2c d28b c23f 13ee 97f7 3bd0 c03f
00000420: c50c e67f fce2 bd3f 4cff 12ec 081d ba3f
00000430: 6cc5 f2b8 7278 b63f 49c5 89cb 1410 b33f
00000440: 5ce7 588b 6be7 af3f c7e0 8218 1556 aa3f
00000450: 57dc 3ff9 0c70 a53f 1db6 aef9 4031 a13f
00000460: 6687 70b0 ad20 9b3f f480 4985 6601 953f
00000470: a98b 4016 efcf 8f3f 311b 5015 c26c 873f
00000480: a7f3 8015 d29d 803f 8c34 31f1 b454 763f
00000490: 9040 317c 9a76 6b3f 8ee0 7d05 f13e 5c3f
000004a0: bfe3 4bb7 45cc 3f3f 239a 61f1 b784 3cbf
000004b0: bc23 79e5 beff 51bf efc3 9a54 4e84 59bf
000004c0: a364 0630 8b67 5ebf 441a bf10 66a1 60bf
000004d0: e08e 1256 e949 61bf 9eb5 d007 3e60 61bf
000004e0: e439 23d1 1f0d 61bf ba95 2e13 b370 60bf
000004f0: f5b5 55c0 ee47 5fbf 3fc9 560d 1d74 5dbf
00000500: 3c10 32d1 b082 5bbf 870d 6123 cb88 59bf
00000510: 868c 873c 8795 57bf bd91 784e 4eb3 55bf
00000520: 1d8d df62 eee8 53bf 1fd9 ae49 7c3a 52bf
00000530: ddfc 8850 08aa 50bf 51c8 63df 5970 4ebf
00000540: 936d 96d1 fbc8 4bbf 5bda 7725 bb5b 49bf
00000550: 8cec 2395 7a25 47bf d25a 4d89 9a22 45bf
00000560: 6302 5594 3e4f 43bf d8ed 61a2 7ea7 41bf
00000570: cc61 36a4 8827 40bf f4b8 6514 6d97 3dbf
00000580: ad33 be32 3721 3bbf 86e7 53f5 16e6 38bf
00000590: 683e b9b2 39e0 36bf ac45 61ea 510a 35bf
000005a0: f54a 7665 925f 33bf 4f4c a6dc a6db 31bf
000005b0: d98a c33d ab7a 30bf 3fb5 ddb0 4472 2ebf
000005c0: bc73 f5f3 d827 2cbf 50dc f2a3 7c10 2abf
000005d0: c416 b2ad 3027 28bf 23fc 3693 7d67 26bf
000005e0: 5851 7fcd 64cd 24bf 8f91 e58d 5355 23bf
000005f0: a5c3 52d5 16fc 21bf a1a8 54ce d0be 20bf
00000600: fa52 39a4 de35 1fbf 597a 51fc 461c 1dbf
00000610: a792 ea7f b42c 1bbf c4d8 c979 6b63 19bf
00000620: 6385 2bfc 0ebd 17bf e99d 8493 9636 16bf
00000630: d8d5 bf2b 45cd 14bf d197 8503 a17e 13bf
00000640: be05 1d8d 6c48 12bf 3b4e b6ae d43d 113f
00000650: 23c8 c4da 6b79 123f 330f fd8b 7cd0 133f
00000660: e1bd 1a75 e645 153f 9d00 713f e5dc 163f
00000670: a91b 6f43 1e99 183f 9b04 f8b2 b07e 1a3f
00000680: 7060 c8ab 4892 1c3f ebcf efd7 35d9 1e3f
00000690: fdeb 4627 c3ac 203f 847a b051 130d 223f
000006a0: c482 7a1b 8491 233f 3df9 1d8d a73e 253f
000006b0: 08d6 188c c419 273f e383 8ae2 f728 293f
000006c0: 66d6 38e3 5b73 2b3f 87bf 72f0 3701 2e3f
000006d0: d73c 8bac 1c6e 303f 442c 1b94 db07 323f
000006e0: 6df6 4d51 81d4 333f 5b40 471c e3db 353f
000006f0: 35e6 004e 3a27 383f a64f 86b0 64c1 3a3f
00000700: ae32 67fb 2db7 3d3f bd32 3030 d18b 403f
00000710: b4ef 5d9e 347a 423f 5c0d dae6 12b1 443f
00000720: 15dd 0b05 6d3c 473f b8c0 48ae 222a 4a3f
00000730: 7f29 43e0 1a8a 4d3f 9f6d 5463 2fb7 503f
00000740: 3f5f 56b8 8ef5 523f 3073 2dc0 458b 553f
00000750: 038f e102 4784 583f 7de8 ef8e 0ded 5b3f
00000760: b13d 67e6 1ad2 5f3f e598 8247 991f 623f
00000770: 5c5f 654f 209f 643f 050c 5c23 eb6a 673f
00000780: 56ba 84e0 9283 6a3f 6395 f757 b3e5 6d3f
00000790: 7626 2064 23c4 703f 69b8 c24d 51ad 723f
000007a0: 706d b14e 08a1 743f f2b7 d92d 838b 763f
000007b0: a53a 15b0 0251 783f eb3c a381 1dcc 793f
000007c0: a692 e0fb 02cc 7a3f 6628 6424 cd12 7b3f
000007d0: 8713 e3f6 0854 7a3f a946 f8ae a733 783f
000007e0: b58e 4195 9745 743f aa9a 625d 9b1c 6c3f
000007f0: 2e62 366f 4812 543f 3c4a cc57 6bac 5dbf

dM (column-major) f8 [201, 11]
-8.903749905671245e-05 -9.601018744381757e-05 -0.00010361834578214468 -0.00011192827622586627 -0.00012101408155912339 -0.0001309586779375378 -0.00014185494708379554 -0.0001538070447564499
-0.0001669318844499201 -0.0001813608151671675 -0.00019724151190239297 -0.00021474009438702315 -0.00023404348552838472 -0.00025536201195322587 -0.00027893223555788355 -0.0003050199840024
-0.0003339235170947155 -0.00036597672167414916 -0.0004015521655645505 -0.00044106375534823844 -0.0004849686271884911 -0.0005337677456246442 -0.0005880044828589318 -0.0006482601893868023
-0.0007151454324826697 -0.0007892851591397649 -0.0008712955192589495 -0.0009617494493609078 -0.0010611273543764646 -0.0011697483256833984 -0.0012876762940889888 -0.0014145943430838468
-0.0015496391181726247 -0.0016911858988506588 -0.0018365735104435132 -0.0019817569307753456 -0.002120874317065268 -0.0022457144082870385 -0.00234507006495204 -0.0024039643677238876
-0.0024027375451457474 -0.0023159864473136613 -0.002111353803000893 -0.0017481726445245929 -0.0011759826768207844 -0.00033295068928469637 0.0008557529021693971 0.0024795438661836845
0.004643871140819719 0.00747137312469416 0.011102548913968021 0.015695695053382704 0.021425793908437973 0.028481964948668004 0.037063003720581675 0.04737043298115824
0.059598372889057984 0.07391939655870483 0.09046536438441359 0.10930201083899718 0.13039576923017407 0.15357093197559316 0.17845471367823015 0.20440705659006114
0.23043102750349573 0.2550583344956121 0.2762027950018401 0.2909725409596711 0.29542957294061006 0.2842836595129478 0.25050831120387346 0.18487406984882385
0.07541941919586549 -0.09305187167814562 -0.3391856726128974 -0.6843331554704979 -1.149264117197532 -1.744946658910161 -2.4512123382320454 -3.1758890341057464
-3.699500900558044 -3.6641939637956797 -2.7439159403713878 -1.0093333533604214 0.9539604206755432 2.5050430346143178 3.3970870422191615 3.7253782872531045
3.680693332503794 3.4152854491502436 3.021214187413219 2.5473279842719276 2.018896133083442 1.4522985379330524 0.8664022671408631 0.2934348366365827
-0.20993460605848333 -0.556971185171335 -0.6483718221611859 -0.4345537250393726 4.884981308350675e-14 0.43455372503921497 0.648371822161267 0.5569711851712673
0.20993460605861433 -0.2934348366365738 -0.8664022671410552 -1.4522985379329036 -2.018896133083403 -2.5473279842718672 -3.0212141874134026 -3.415285449150119
-3.6806933325038558 -3.7253782872530845 -3.3970870422192148 -2.505043034614349 -0.9539604206753167 1.0093333533602393 2.7439159403714766 3.6641939637955288
3.6995009005581463 3.1758890341057464 2.4512123382320454 1.744946658910161 1.149264117197532 0.6843331554704979 0.3391856726128974 0.09305187167814562
-0.07541941919586549 -0.18487406984882385 -0.25050831120387346 -0.2842836595129478 -0.29542957294061006 -0.2909725409596711 -0.2762027950018401 -0.2550583344956121
-0.23043102750349573 -0.20440705659006114 -0.17845471367823015 -0.15357093197559316 -0.13039576923017407 -0.10930201083899718 -0.09046536438441359 -0.07391939655870483
-0.059598372889057984 -0.04737043298115824 -0.037063003720581675 -0.028481964948668004 -0.021425793908437973 -0.015695695053382704 -0.011102548913968021 -0.00747137312469416
-0.004643871140819719 -0.0024795438661836845 -0.0008557529021693971 0.00033295068928469637 0.0011759826768207844 0.0017481726445245929 0.002111353803000893 0.0023159864473136613
0.0024027375451457474 0.0024039643677238876 0.00234507006495204 0.0022457144082870385 0.002120874317065268 0.0019817569307753456 0.0018365735104435132 0.0016911858988506588
0.0015496391181726247 0.0014145943430838468 0.0012876762940889888 0.0011697483256833984 0.0010611273543764646 0.0009617494493609078 0.0008712955192589495 0.0007892851591397649
0.0007151454324826697 0.0006482601893868023 0.0005880044828589318 0.0005337677456246442 0.00048496862718904187 0.0004410637553474947 0.0004015521655654618 0.0003659767216728953
0.00033392351709357436 0.00030501998400635244 0.0002789322355544743 0.0002553620119532058 0.00023404348552987983 0.00021474009438635636 0.00019724151190211053 0.00018136081516882145
0.00016693188444880447 0.00015380704476523357 0.00014185494708253218 0.00013095867792930788 0.00012101408155487549 0.00011192827624062443 0.00010361834579409665 9.601018750549729e-05
8.903749897245775e-05 9.025075778905656e-05 9.804642511054563e-05 0.00010665027486341278 0.00011616227661997639 0.00012669715883493384 0.00013838697381909817 0.00015138420848258017
0.00016586552372718856 0.0001820362776446875 0.00020013599092171905 0.00022044497382783966 0.00024329233927815924 0.0002690656973765172 0.00029822285056713865 0.00033130585523473503
0.0003689578474297878 0.00041194304284459583 0.00046117030729868314 0.0005177206370189306 0.000582878748206555 0.0006581687461469993 0.0007453934596000164 0.0008466764434531045
0.0009645048139344078 0.0011017698866023033 0.0012618009770641145 0.0014483855815527029 0.00166576639255936 0.001918602147296223 0.0022118750891091787 0.002550722855535181
0.0029401669838365154 0.00338470415834101 0.003887720217390083 0.004450681435121881 0.0050720535966881425 0.0057458981765759745 0.006460098127035089 0.007194175365735015
0.00791668035451417 0.008582163634340436 0.009127782347896542 0.009469653754436693 0.00949914394009263 0.009079373442641677 0.008042330505495082 0.006187102683587395
0.0032798606911633213 -0.0009436571061021527 -0.006772321523258703 -0.01450956855347469 -0.024458278150243287 -0.036899841763159726 -0.05206692966886934 -0.07010985843208488
00000000: e973 1596 3457 17bf e4ef ea75 222b 19bf
00000010: b24d 27a0 b529 1bbf 21c2 bf24 6157 1dbf
00000020: 0f10 3217 1eb9 1fbf b20d 4d7a 3e2a 21bf
00000030: c767 8db7 dc97 22bf 5c83 4974 e828 24bf
00000040: 479d fff7 4de1 25bf e1ce 328a 75c5 27bf
00000050: 8733 a2af 53da 29bf e2dc 745d 7b25 2cbf
00000060: 04c4 7c3b 32ad 2ebf 0d52 6f7d 43bc 30bf
00000070: a981 5bd4 b447 32bf 365c 1ddb 62fd 33bf
00000080: 1960 d595 4ee2 35bf 95df f90c 12fc 37bf
00000090: 3565 326b ed50 3abf 558f 9867 d2e7 3cbf
000000a0: 8347 b364 6cc8 3fbf 4c4c 6c81 917d 41bf
000000b0: 553d 0b03 8a44 43bf 3d0c 0728 003e 45bf
000000c0: 4f65 481f 136f 47bf 4377 0df9 00dd 49bf
000000d0: 81c1 53e1 f48c 4cbf 832c 4a37 bd83 4fbf
000000e0: f209 2cd2 b062 51bf 0f44 6ab3 472a 53bf
000000f0: f763 8ae4 e718 55bf 4ca3 331c 3d2d 57bf
00000100: e863 5255 a863 59bf 4218 2108 59b5 5bbf
00000110: b8df 7fca 2517 5ebf 7d05 9aa6 0b3c 60bf
00000120: 9845 95ba cb5f 61bf 1f6c 12be 9a65 62bf
00000130: 6da7 8be7 f735 63bf 804a e28a 7ab1 63bf
00000140: fa36 ace5 e7ae 63bf d9f9 92c1 f9f8 62bf
00000150: 34f4 1771 d44b 61bf 01f1 8015 5ea4 5cbf
00000160: f990 cec8 6d44 53bf ef34 5852 fcd1 35bf
00000170: 8a1a 385d 930a 4c3f 4863 0efa fa4f 643f
00000180: 4998 d3aa 7305 733f 8fde a073 4d9a 7e3f
00000190: 8be0 e6e3 eebc 863f d2e1 c443 8812 903f
000001a0: 93a3 82b0 a4f0 953f 30e0 eb4f 602a 9d3f
000001b0: 5e2b be09 ecf9 a23f 6a22 e7f8 ef40 a83f
000001c0: 2d19 e88c ad83 ae3f 307b c2ae 61ec b23f
000001d0: d3a7 73f5 bc28 b73f 9ac6 f071 37fb bb3f
000001e0: a9af 30fe ceb0 c03f e9c7 3959 36a8 c33f
000001f0: 4f53 88a3 9ad7 c63f 9a1e 90ab 022a ca3f
00000200: 7f3b 8e8f c37e cd3f c8c6 4e31 e052 d03f
00000210: 4230 e67c 4ead d13f f52b dd4a 4b9f d23f
00000220: 5146 8370 51e8 d23f c34c 1917 b431 d23f
00000230: 03cc ff02 5408 d03f f186 f019 f4a9 c73f
00000240: 71f7 ede2 af4e b33f fd70 b059 3fd2 b7bf
00000250: df39 c9d2 37b5 d5bf 840e 4aa5 0ee6 e5bf
00000260: 7f46 5dc5 6263 f2bf a989 1430 4deb fbbf
00000270: 0d11 e236 159c 03c0 76ac 8982 3868 09c0
00000280: d35a 9bed 9398 0dc0 da9f c5ec 4450 0dc0
00000290: 11f2 5633 8af3 05c0 cf1e f7ba 3a26 f0bf
000002a0: 045b 0f01 d886 ee3f c1ed a500 540a 0440
000002b0: 2ef9 9ff8 3b2d 0b40 39d8 a721 93cd 0d40
000002c0: 22ac 8d58 0f72 0d40 f9d6 742d 8152 0b40
000002d0: 3a35 0958 722b 0840 7911 857e ed60 0440
000002e0: fae9 0c04 b326 0040 9b37 4764 9d3c f73f
000002f0: c09b 513f 91b9 eb3f 511e b7e8 a2c7 d23f
00000300: 2bf0 a81d 23df cabf 0002 243c b5d2 e1bf
00000310: 2d91 7a43 76bf e4bf 8e8a 596d bacf dbbf
00000320: eaff ffff ff7f 2b3d 767f 596d bacf db3f
00000330: 0794 7a43 76bf e43f 9eff 233c b5d2 e13f
00000340: 9b02 a91d 23df ca3f b11d b7e8 a2c7 d2bf
00000350: 82a2 513f 91b9 ebbf fd34 4764 9d3c f7bf
00000360: a3e9 0c04 b326 00c0 f110 857e ed60 04c0
00000370: d836 0958 722b 08c0 e0d5 742d 8152 0bc0
00000380: adac 8d58 0f72 0dc0 0cd8 a721 93cd 0dc0
00000390: a6f9 9ff8 3b2d 0bc0 07ee a500 540a 04c0
000003a0: 0c53 0f01 d886 eebf 9b1b f7ba 3a26 f03f
000003b0: d9f2 5633 8af3 0540 869e c5ec 4450 0d40
000003c0: b95b 9bed 9398 0d40 76ac 8982 3868 0940
000003d0: 0d11 e236 159c 0340 a989 1430 4deb fb3f
000003e0: 7f46 5dc5 6263 f23f 840e 4aa5 0ee6 e53f
000003f0: df39 c9d2 37b5 d53f fd70 b059 3fd2 b73f
00000400: 71f7 ede2 af4e b3bf f186 f019 f4a9 c7bf
00000410: 03cc ff02 5408 d0bf c34c 1917 b431 d2bf
00000420: 5146 8370 51e8 d2bf f52b dd4a 4b9f d2bf
00000430: 4230 e67c 4ead d1bf c8c6 4e31 e052 d0bf
00000440: 7f3b 8e8f c37e cdbf 9a1e 90ab 022a cabf
00000450: 4f53 88a3 9ad7 c6bf e9c7 3959 36a8 c3bf
00000460: a9af 30fe ceb0 c0bf 9ac6 f071 37fb bbbf
00000470: d3a7 73f5 bc28 b7bf 307b c2ae 61ec b2bf
00000480: 2d19 e88c ad83 aebf 6a22 e7f8 ef40 a8bf
00000490: 5e2b be09 ecf9 a2bf 30e0 eb4f 602a 9dbf
000004a0: 93a3 82b0 a4f0 95bf d2e1 c443 8812 90bf
000004b0: 8be0 e6e3 eebc 86bf 8fde a073 4d9a 7ebf
000004c0: 4998 d3aa 7305 73bf 4863 0efa fa4f 64bf
000004d0: 8a1a 385d 930a 4cbf ef34 5852 fcd1 353f
000004e0: f990 cec8 6d44 533f 01f1 8015 5ea4 5c3f
000004f0: 34f4 1771 d44b 613f d9f9 92c1 f9f8 623f
00000500: fa36 ace5 e7ae 633f 804a e28a 7ab1 633f
00000510: 6da7 8be7 f735 633f 1f6c 12be 9a65 623f
00000520: 9845 95ba cb5f 613f 7d05 9aa6 0b3c 603f
00000530: b8df 7fca 2517 5e3f 4218 2108 59b5 5b3f
00000540: e863 5255 a863 593f 4ca3 331c 3d2d 573f
00000550: f763 8ae4 e718 553f 0f44 6ab3 472a 533f
00000560: f209 2cd2 b062 513f 832c 4a37 bd83 4f3f
00000570: 81c1 53e1 f48c 4c3f 4377 0df9 00dd 493f
00000580: 4f65 481f 136f 473f 3d0c 0728 003e 453f
00000590: 553d 0b03 8a44 433f 4c4c 6c81 917d 413f
000005a0: 336f b364 6cc8 3f3f bd59 9867 d2e7 3c3f
000005b0: dfa6 326b ed50 3a3f 3b85 f90c 12fc 373f
000005c0: df0d d595 4ee2 353f 0479 1edb 62fd 333f
000005d0: ff8b 5ad4 b447 323f 9b50 6f7d 43bc 303f
000005e0: 7c9b 7d3b 32ad 2e3f ca7c 745d 7b25 2c3f
000005f0: d30a a2af 53da 293f 3dbd 338a 75c5 273f
00000600: 7ffc fef7 4de1 253f 3875 4e74 e828 243f
00000610: b5b1 8cb7 dc97 223f a46b 487a 3e2a 213f
00000620: af47 2d17 1eb9 1f3f e15f d024 6157 1d3f
00000630: 9ec2 34a0 b529 1b3f dc61 3076 222b 193f
00000640: 2597 b695 3457 173f cd2c 6b36 a0a8 173f
00000650: 3437 e2c1 c8b3 193f ea74 45c5 2df5 1b3f
00000660: fc0e 69b7 8473 1e3f 13bd b04e 409b 203f
00000670: e093 b10d 7f23 223f 9efd f972 9cd7 233f
00000680: 1d6c f8ff 85bd 253f db10 e5b7 1fdc 273f
00000690: 534f 4f12 733b 2a3f 3d58 04e8 e7e4 2c3f
000006a0: db66 f847 89e3 2f3f 0cb1 e65e 2ca2 313f
000006b0: 86f8 dd63 598b 333f 0f4d 2ed0 63b6 353f
000006c0: 6783 68e3 152e 383f a4cc 96e5 41ff 3a3f
000006d0: fc8a 4263 2739 3e3f c6c3 2b9a f4f6 403f
000006e0: c749 9e94 8a19 433f 43b4 b69e 1e91 453f
000006f0: 4f98 0c44 d06c 483f 3a36 45d1 6fbe 4b3f
00000700: 63c0 fb50 da9a 4f3f abf8 5c68 280d 523f
00000710: b226 8e7b 60ac 543f 35e6 1a2d f8ba 573f
00000720: 84c2 710b bb4a 5b3f 03ce 815e 336f 5f3f
00000730: 5c3c 7565 a31e 623f 4ca3 dce7 40e5 643f
00000740: 559a 4a21 fa15 683f e2af 5535 3dba 6b3f
00000750: 71ed 11e6 23d9 6f3f b017 57b3 e03a 723f
00000760: e72f 2405 6fc6 743f 5f98 12cc 0289 773f
00000770: 11fc f362 e775 7a3f 372a aebe a377 7d3f
00000780: ac64 b9d9 9e36 803f 1b78 1b81 8693 813f
00000790: ee90 5a35 96b1 823f 5b20 7069 d364 833f
000007a0: f065 8084 4974 833f 51d7 08e0 3498 823f
000007b0: 03ad 0954 7f78 803f 3093 edba a557 793f
000007c0: 8b6c edcc 5dde 6a3f 6779 6534 f8eb 4ebf
000007d0: 16c5 5d37 4bbd 7bbf a477 5453 31b7 8dbf
000007e0: e749 1643 970b 99bf 8d60 333b 89e4 a2bf
000007f0: b908 4340 84a8 aabf 7bce 173d b8f2 b1bf

x f8 [201, 1]
-5.0 -4.95 -4.9 -4.85 -4.8 -4.75 -4.7 -4.65
-4.6 -4.55 -4.5 -4.45 -4.4 -4.35 -4.3 -4.25
-4.2 -4.15 -4.1 -4.05 -4.0 -3.95 -3.9 -3.8499999999999996
-3.8 -3.75 -3.7 -3.65 -3.5999999999999996 -3.55 -3.5 -3.45
-3.4 -3.3499999999999996 -3.3 -3.25 -3.2 -3.15 -3.0999999999999996 -3.05
-3.0 -2.9499999999999997 -2.9 -2.85 -2.8 -2.75 -2.6999999999999997 -2.65
-2.5999999999999996 -2.55 -2.5 -2.4499999999999997 -2.4 -2.3499999999999996 -2.3 -2.25
-2.1999999999999997 -2.15 -2.0999999999999996 -2.05 -2.0 -1.9499999999999997 -1.9 -1.8499999999999996
-1.7999999999999998 -1.75 -1.6999999999999997 -1.65 -1.5999999999999996 -1.5499999999999998 -1.5 -1.4499999999999997
-1.4 -1.3499999999999996 -1.2999999999999998 -1.25 -1.1999999999999997 -1.15 -1.0999999999999996 -1.0499999999999998
-1.0 -0.9500000000000002 -0.8999999999999995 -0.8499999999999996 -0.7999999999999998 -0.75 -0.7000000000000002 -0.6499999999999995
-0.5999999999999996 -0.5499999999999998 -0.5 -0.4500000000000002 -0.39999999999999947 -0.34999999999999964 -0.2999999999999998 -0.25
-0.1999999999999993 -0.14999999999999947 -0.09999999999999964 -0.04999999999999982 0.0 0.04999999999999982 0.09999999999999964 0.14999999999999947
0.1999999999999993 0.25 0.2999999999999998 0.34999999999999964 0.39999999999999947 0.4500000000000002 0.5 0.5499999999999998
0.5999999999999996 0.6499999999999995 0.7000000000000002 0.75 0.7999999999999998 0.8499999999999996 0.8999999999999995 0.9500000000000002
1.0 1.0499999999999998 1.0999999999999996 1.15 1.1999999999999997 1.25 1.2999999999999998 1.3499999999999996
1.4 1.4499999999999997 1.5 1.5499999999999998 1.5999999999999996 1.65 1.6999999999999997 1.75
1.7999999999999998 1.8499999999999996 1.9 1.9499999999999997 2.0 2.05 2.0999999999999996 2.15
2.1999999999999997 2.25 2.3 2.3499999999999996 2.4 2.4499999999999997 2.5 2.55
2.5999999999999996 2.65 2.6999999999999997 2.75 2.8 2.85 2.9 2.9499999999999997
3.0 3.05 3.0999999999999996 3.15 3.2 3.25 3.3 3.3499999999999996
3.4 3.45 3.5 3.55 3.5999999999999996 3.65 3.7 3.75
3.8 3.8499999999999996 3.9 3.95 4.0 4.05 4.1 4.15
4.2 4.25 4.3 4.35 4.4 4.45 4.5 4.55
4.6 4.65 4.7 4.75 4.8 4.85 4.9 4.95
5.0
00000000: 0000 0000 0000 14c0 cdcc cccc cccc 13c0
00000010: 9a99 9999 9999 13c0 6666 6666 6666 13c0
00000020: 3333 3333 3333 13c0 0000 0000 0000 13c0
00000030: cdcc cccc cccc 12c0 9a99 9999 9999 12c0
00000040: 6666 6666 6666 12c0 3333 3333 3333 12c0
00000050: 0000 0000 0000 12c0 cdcc cccc cccc 11c0
00000060: 9a99 9999 9999 11c0 6666 6666 6666 11c0
00000070: 3333 3333 3333 11c0 0000 0000 0000 11c0
00000080: cdcc cccc cccc 10c0 9a99 9999 9999 10c0
00000090: 6666 6666 6666 10c0 3333 3333 3333 10c0
000000a0: 0000 0000 0000 10c0 9a99 9999 9999 0fc0
000000b0: 3333 3333 3333 0fc0 cccc cccc cccc 0ec0
000000c0: 6666 6666 6666 0ec0 0000 0000 0000 0ec0
000000d0: 9a99 9999 9999 0dc0 3333 3333 3333 0dc0
000000e0: cccc cccc cccc 0cc0 6666 6666 6666 0cc0
000000f0: 0000 0000 0000 0cc0 9a99 9999 9999 0bc0
00000100: 3333 3333 3333 0bc0 cccc cccc cccc 0ac0
00000110: 6666 6666 6666 0ac0 0000 0000 0000 0ac0
00000120: 9a99 9999 9999 09c0 3333 3333 3333 09c0
00000130: cccc cccc cccc 08c0 6666 6666 6666 08c0
00000140: 0000 0000 0000 08c0 9999 9999 9999 07c0
00000150: 3333 3333 3333 07c0 cdcc cccc cccc 06c0
00000160: 6666 6666 6666 06c0 0000 0000 0000 06c0
00000170: 9999 9999 9999 05c0 3333 3333 3333 05c0
00000180: cccc cccc cccc 04c0 6666 6666 6666 04c0
00000190: 0000 0000 0000 04c0 9999 9999 9999 03c0
000001a0: 3333 3333 3333 03c0 cccc cccc cccc 02c0
000001b0: 6666 6666 6666 02c0 0000 0000 0000 02c0
000001c0: 9999 9999 9999 01c0 3333 3333 3333 01c0
000001d0: cccc cccc cccc 00c0 6666 6666 6666 00c0
000001e0: 0000 0000 0000 00c0 3233 3333 3333 ffbf
000001f0: 6666 6666 6666 febf 9899 9999 9999 fdbf
00000200: cccc cccc cccc fcbf 0000 0000 0000 fcbf
00000210: 3233 3333 3333 fbbf 6666 6666 6666 fabf
00000220: 9899 9999 9999 f9bf cccc cccc cccc f8bf
00000230: 0000 0000 0000 f8bf 3233 3333 3333 f7bf
00000240: 6666 6666 6666 f6bf 9899 9999 9999 f5bf
00000250: cccc cccc cccc f4bf 0000 0000 0000 f4bf
00000260: 3233 3333 3333 f3bf 6666 6666 6666 f2bf
00000270: 9899 9999 9999 f1bf cccc cccc cccc f0bf
00000280: 0000 0000 0000 f0bf 6866 6666 6666 eebf
00000290: c8cc cccc cccc ecbf 3033 3333 3333 ebbf
000002a0: 9899 9999 9999 e9bf 0000 0000 0000 e8bf
000002b0: 6866 6666 6666 e6bf c8cc cccc cccc e4bf
000002c0: 3033 3333 3333 e3bf 9899 9999 9999 e1bf
000002d0: 0000 0000 0000 e0bf d0cc cccc cccc dcbf
000002e0: 9099 9999 9999 d9bf 6066 6666 6666 d6bf
000002f0: 3033 3333 3333 d3bf 0000 0000 0000 d0bf
00000300: 8099 9999 9999 c9bf 2033 3333 3333 c3bf
00000310: 8099 9999 9999 b9bf 8099 9999 9999 a9bf
00000320: 0000 0000 0000 0000 8099 9999 9999 a93f
00000330: 8099 9999 9999 b93f 2033 3333 3333 c33f
00000340: 8099 9999 9999 c93f 0000 0000 0000 d03f
00000350: 3033 3333 3333 d33f 6066 6666 6666 d63f
00000360: 9099 9999 9999 d93f d0cc cccc cccc dc3f
00000370: 0000 0000 0000 e03f 9899 9999 9999 e13f
00000380: 3033 3333 3333 e33f c8cc cccc cccc e43f
00000390: 6866 6666 6666 e63f 0000 0000 0000 e83f
000003a0: 9899 9999 9999 e93f 3033 3333 3333 eb3f
000003b0: c8cc cccc cccc ec3f 6866 6666 6666 ee3f
000003c0: 0000 0000 0000 f03f cccc cccc cccc f03f
000003d0: 9899 9999 9999 f13f 6666 6666 6666 f23f
000003e0: 3233 3333 3333 f33f 0000 0000 0000 f43f
000003f0: cccc cccc cccc f43f 9899 9999 9999 f53f
00000400: 6666 6666 6666 f63f 3233 3333 3333 f73f
00000410: 0000 0000 0000 f83f cccc cccc cccc f83f
00000420: 9899 9999 9999 f93f 6666 6666 6666 fa3f
00000430: 3233 3333 3333 fb3f 0000 0000 0000 fc3f
00000440: cccc cccc cccc fc3f 9899 9999 9999 fd3f
00000450: 6666 6666 6666 fe3f 3233 3333 3333 ff3f
00000460: 0000 0000 0000 0040 6666 6666 6666 0040
00000470: cccc cccc cccc 0040 3333 3333 3333 0140
00000480: 9999 9999 9999 0140 0000 0000 0000 0240
00000490: 6666 6666 6666 0240 cccc cccc cccc 0240
000004a0: 3333 3333 3333 0340 9999 9999 9999 0340
000004b0: 0000 0000 0000 0440 6666 6666 6666 0440
000004c0: cccc cccc cccc 0440 3333 3333 3333 0540
000004d0: 9999 9999 9999 0540 0000 0000 0000 0640
000004e0: 6666 6666 6666 0640 cdcc cccc cccc 0640
000004f0: 3333 3333 3333 0740 9999 9999 9999 0740
00000500: 0000 0000 0000 0840 6666 6666 6666 0840
00000510: cccc cccc cccc 0840 3333 3333 3333 0940
00000520: 9a99 9999 9999 0940 0000 0000 0000 0a40
00000530: 6666 6666 6666 0a40 cccc cccc cccc 0a40
00000540: 3333 3333 3333 0b40 9a99 9999 9999 0b40
00000550: 0000 0000 0000 0c40 6666 6666 6666 0c40
00000560: cccc cccc cccc 0c40 3333 3333 3333 0d40
00000570: 9a99 9999 9999 0d40 0000 0000 0000 0e40
00000580: 6666 6666 6666 0e40 cccc cccc cccc 0e40
00000590: 3333 3333 3333 0f40 9a99 9999 9999 0f40
000005a0: 0000 0000 0000 1040 3333 3333 3333 1040
000005b0: 6666 6666 6666 1040 9a99 9999 9999 1040
000005c0: cdcc cccc cccc 1040 0000 0000 0000 1140
000005d0: 3333 3333 3333 1140 6666 6666 6666 1140
000005e0: 9a99 9999 9999 1140 cdcc cccc cccc 1140
000005f0: 0000 0000 0000 1240 3333 3333 3333 1240
00000600: 6666 6666 6666 1240 9a99 9999 9999 1240
00000610: cdcc cccc cccc 1240 0000 0000 0000 1340
00000620: 3333 3333 3333 1340 6666 6666 6666 1340
00000630: 9a99 9999 9999 1340 cdcc cccc cccc 1340
00000640: 0000 0000 0000 1440

Mavg f8 [201, 1]
6.974379810975544e-05 7.436624227659741e-05 7.935283532171201e-05 8.473697436154796e-05 9.055556763937056e-05 9.684945291592851e-05 0.0001036638719398154 0.00011104900941638819
0.00011906060630624351 0.00012776065896059864 0.00013721821759430888 0.00014751029997541615 0.00015872293905212496 0.00017095238664336168 0.00018430649940768713 0.00019890633822360827
0.0002148880180426081 0.0002324048524316359 0.0002516298456715337 0.0002727585957441366 0.00029601268421614496 0.0003216436443866995 0.0003499376176796808 0.00038122083082218144
0.00041586605368402183 0.0004543002307533974 0.0004970135192773616 0.00054457001551764 0.0005976205090513364 0.0006569176755887071 0.0007233342037727186 0.00079788445371239
0.0008817503679598085 0.000976312503306053 0.0010831872289610845 0.0012042713491718286 0.0013417956630690571 0.001498389279906613 0.0016771568740375808 0.0018817715033694836
0.00211658614284833 0.0023867677194764985 0.002698458200704463 0.003058968212769763 0.003477009786196821 0.003962976188520601 0.00452927846857894 0.00519075037882521
0.005965135861458907 0.0068736764111611256 0.007941819534253774 0.00920007444060936 0.010685047337758182 0.012440696659489629 0.01451985881167679 0.01698610831168427
0.01991603356056687 0.023402032315256862 0.027555761123277192 0.032512413140271396 0.038436052412991736 0.04552630470943823 0.05402680188858207 0.06423590751704893
0.07652042784012446 0.09133324980599088 0.10923616596866133 0.1309295667011395 0.15729122260675876 0.18942704612335337 0.22873745681539873 0.27700357604442416
0.3364973706720379 0.41011760384646123 0.5015455721577609 0.6153931842351082 0.7572637378843354 0.933528807429189 1.150390468156397 1.4114278189071945
1.7126081937727733 2.034996241544284 2.340513923218782 2.582255570972717 2.7307725797354885 2.7910334492096798 2.791291396740049 2.76195810917283
2.724869390538584 2.6928180406631603 2.672493219102516 2.667178270229418 2.6784286969593936 2.706889684740911 2.752480996539381 2.8140394550332286
2.8884019018558775 2.968999619760556 3.044594924094223 3.099927700644168 3.120439203894292 3.099927700644168 3.044594924094223 2.968999619760556
2.8884019018558775 2.8140394550332286 2.752480996539381 2.706889684740911 2.6784286969593936 2.667178270229418 2.672493219102516 2.6928180406631603
2.724869390538584 2.76195810917283 2.791291396740049 2.7910334492096798 2.7307725797354885 2.582255570972717 2.340513923218782 2.034996241544284
1.7126081937727733 1.4114278189071945 1.150390468156397 0.933528807429189 0.7572637378843354 0.6153931842351082 0.5015455721577609 0.41011760384646123
0.3364973706720379 0.27700357604442416 0.22873745681539873 0.18942704612335337 0.15729122260675876 0.1309295667011395 0.10923616596866133 0.09133324980599088
0.07652042784012446 0.06423590751704893 0.05402680188858207 0.04552630470943823 0.038436052412991736 0.032512413140271396 0.027555761123277192 0.023402032315256862
0.01991603356056687 0.01698610831168427 0.01451985881167679 0.012440696659489629 0.010685047337758182 0.00920007444060936 0.007941819534253774 0.0068736764111611256
0.005965135861458907 0.00519075037882521 0.00452927846857894 0.003962976188520601 0.003477009786196821 0.003058968212769763 0.002698458200704463 0.0023867677194764985
0.00211658614284833 0.0018817715033694836 0.0016771568740375808 0.001498389279906613 0.0013417956630690571 0.0012042713491718286 0.0010831872289610845 0.000976312503306053
0.0008817503679598085 0.00079788445371239 0.0007233342037727186 0.0006569176755887071 0.0005976205090513364 0.00054457001551764 0.0004970135192773616 0.0004543002307533974
0.00041586605368402183 0.00038122083082218144 0.0003499376176796808 0.0003216436443866995 0.00029601268421614496 0.0002727585957441366 0.0002516298456715337 0.0002324048524316359
0.0002148880180426081 0.00019890633822360827 0.00018430649940768713 0.00017095238664336168 0.00015872293905212496 0.00014751029997541615 0.00013721821759430888 0.00012776065896059864
0.00011906060630624351 0.00011104900941638819 0.0001036638719398154 9.684945291592851e-05 9.055556763937056e-05 8.473697436154796e-05 7.935283532171201e-05 7.436624227659741e-05
6.974379810975544e-05
00000000: da9f f253 6d48 123f 0075 6350 a27e 133f
00000010: e469 8854 47cd 143f ecca 7322 9a36 163f
00000020: 8d3f 51ce 14bd 173f 92cd 7fee 7463 193f
00000030: defb 4fc2 c32c 1b3f 8ce0 6c74 5f1c 1d3f
00000040: 6ed3 2ca4 0536 1f3f f4f1 32b4 efbe 203f
00000050: 8a45 9383 47fc 213f 0453 14d4 9f55 233f
00000060: 9949 2aaa dbcd 243f 8024 d2d1 3568 263f
00000070: 73cd 58c6 4c28 283f 1b2f 6e6f 3012 2a3f
00000080: 60e2 0305 722a 2c3f bd46 337b 3676 2e3f
00000090: d519 36f5 a57d 303f 4bb6 983f 21e0 313f
000000a0: 55cc 43cc 4466 333f 73e0 00ef 4814 353f
000000b0: 1392 a29f faee 363f 5b4a 3d00 d3fb 383f
000000c0: 6476 9f19 1341 3b3f 4bf5 36a2 e4c5 3d3f
000000d0: ffbc cd67 4049 403f 1c93 1934 2fd8 413f
000000e0: 8584 5945 3495 433f 2693 66f7 9f86 453f
000000f0: 3379 e85f c4b3 473f a73e 3dd1 2325 4a3f
00000100: bb0c 2f7f a8e4 4c3f 5f32 dd22 e7fd 4f3f
00000110: 7b46 536e 37bf 513f d95c da83 14bb 533f
00000120: 9d34 691f e6fb 553f 794d 0c3d b38c 583f
00000130: 0ff6 267b 817a 5b3f e66c 31c4 b8d4 5e3f
00000140: 970a 6888 cd56 613f 93ac 8b29 6a8d 633f
00000150: f5be 17b7 131b 663f 3200 de0d 1f0f 693f
00000160: 240f 3a6a d17b 6c3f 870b fe51 7b3b 703f
00000170: 5335 5aee 4a8d 723f 7a6a e671 e542 753f
00000180: b700 0ff7 e56e 783f 9d42 3a76 9227 7c3f
00000190: 83e2 5cf9 cc43 803f 92d6 be16 7dd7 823f
000001a0: ee9d f9c6 0ae2 853f 6ff1 550a 827a 893f
000001b0: e7d5 e875 96bc 8d3f 0a70 bd6e ce64 913f
000001c0: d014 3c63 de64 943f c7db d0cd b3f6 973f
000001d0: 640b 5dd3 9337 9c3f 3c92 4d8e 77a5 a03f
000001e0: cec8 33e8 e3ad a33f b566 ab4b 394f a73f
000001f0: ba17 70a6 66a9 ab3f 33bd 03b2 c371 b03f
00000200: 779c 0cbf d796 b33f cf41 f4a8 9d61 b73f
00000210: 4d36 60c0 e6f6 bb3f c3c9 87cf 4cc2 c03f
00000220: 049e 8568 1e22 c43f a0f1 093c 253f c83f
00000230: 8538 32dc 4447 cd3f 2e18 ff34 6dba d13f
00000240: 367d 8e44 2c89 d53f 2e34 02e8 5d3f da3f
00000250: cce0 bb4c a90c e03f 3113 0f0c 4db1 e33f
00000260: 341e 9529 813b e83f 2e08 39ce 77df ed3f
00000270: 28ca e5d5 ff67 f23f a9ef 2d56 3595 f63f
00000280: e0d9 71d9 d766 fb3f 2f53 071c ac47 0040
00000290: 6675 205d 5fb9 0240 daee d99b 75a8 0440
000002a0: 4538 564b 9fd8 0540 642e 5358 0954 0640
000002b0: 5ed6 7495 9054 0640 ee8d 3e7e 7d18 0640
000002c0: 9be0 b152 88cc 0540 0bd1 552f e48a 0540
000002d0: d69d f61f 4461 0540 c9e5 998f 6156 0540
000002e0: 30de 5006 6c6d 0540 57bc 6ec7 b5a7 0540
000002f0: 2cfc b7c1 1405 0640 c92b 281e 2783 0640
00000300: cd66 d174 721b 0740 08aa 65df 82c0 0740
00000310: 176b 6495 545b 0840 75d9 f1e4 a6cc 0840
00000320: de0e 4fd4 a8f6 0840 75d9 f1e4 a6cc 0840
00000330: 176b 6495 545b 0840 08aa 65df 82c0 0740
00000340: cd66 d174 721b 0740 c92b 281e 2783 0640
00000350: 2cfc b7c1 1405 0640 57bc 6ec7 b5a7 0540
00000360: 30de 5006 6c6d 0540 c9e5 998f 6156 0540
00000370: d69d f61f 4461 0540 0bd1 552f e48a 0540
00000380: 9be0 b152 88cc 0540 ee8d 3e7e 7d18 0640
00000390: 5ed6 7495 9054 0640 642e 5358 0954 0640
000003a0: 4538 564b 9fd8 0540 daee d99b 75a8 0440
000003b0: 6675 205d 5fb9 0240 2f53 071c ac47 0040
000003c0: e0d9 71d9 d766 fb3f a9ef 2d56 3595 f63f
000003d0: 28ca e5d5 ff67 f23f 2e08 39ce 77df ed3f
000003e0: 341e 9529 813b e83f 3113 0f0c 4db1 e33f
000003f0: cce0 bb4c a90c e03f 2e34 02e8 5d3f da3f
00000400: 367d 8e44 2c89 d53f 2e18 ff34 6dba d13f
00000410: 8538 32dc 4447 cd3f a0f1 093c 253f c83f
00000420: 049e 8568 1e22 c43f c3c9 87cf 4cc2 c03f
00000430: 4d36 60c0 e6f6 bb3f cf41 f4a8 9d61 b73f
00000440: 779c 0cbf d796 b33f 33bd 03b2 c371 b03f
00000450: ba17 70a6 66a9 ab3f b566 ab4b 394f a73f
00000460: cec8 33e8 e3ad a33f 3c92 4d8e 77a5 a03f
00000470: 640b 5dd3 9337 9c3f c7db d0cd b3f6 973f
00000480: d014 3c63 de64 943f 0a70 bd6e ce64 913f
00000490: e7d5 e875 96bc 8d3f 6ff1 550a 827a 893f
000004a0: ee9d f9c6 0ae2 853f 92d6 be16 7dd7 823f
000004b0: 83e2 5cf9 cc43 803f 9d42 3a76 9227 7c3f
000004c0: b700 0ff7 e56e 783f 7a6a e671 e542 753f
000004d0: 5335 5aee 4a8d 723f 870b fe51 7b3b 703f
000004e0: 240f 3a6a d17b 6c3f 3200 de0d 1f0f 693f
000004f0: f5be 17b7 131b 663f 93ac 8b29 6a8d 633f
00000500: 970a 6888 cd56 613f e66c 31c4 b8d4 5e3f
00000510: 0ff6 267b 817a 5b3f 794d 0c3d b38c 583f
00000520: 9d34 691f e6fb 553f d95c da83 14bb 533f
00000530: 7b46 536e 37bf 513f 5f32 dd22 e7fd 4f3f
00000540: bb0c 2f7f a8e4 4c3f a73e 3dd1 2325 4a3f
00000550: 3379 e85f c4b3 473f 2693 66f7 9f86 453f
00000560: 8584 5945 3495 433f 1c93 1934 2fd8 413f
00000570: ffbc cd67 4049 403f 4bf5 36a2 e4c5 3d3f
00000580: 6476 9f19 1341 3b3f 5b4a 3d00 d3fb 383f
00000590: 1392 a29f faee 363f 73e0 00ef 4814 353f
000005a0: 55cc 43cc 4466 333f 4bb6 983f 21e0 313f
000005b0: d519 36f5 a57d 303f bd46 337b 3676 2e3f
000005c0: 60e2 0305 722a 2c3f 1b2f 6e6f 3012 2a3f
000005d0: 73cd 58c6 4c28 283f 8024 d2d1 3568 263f
000005e0: 9949 2aaa dbcd 243f 0453 14d4 9f55 233f
000005f0: 8a45 9383 47fc 213f f4f1 32b4 efbe 203f
00000600: 6ed3 2ca4 0536 1f3f 8ce0 6c74 5f1c 1d3f
00000610: defb 4fc2 c32c 1b3f 92cd 7fee 7463 193f
00000620: 8d3f 51ce 14bd 173f ecca 7322 9a36 163f
00000630: e469 8854 47cd 143f 0075 6350 a27e 133f
00000640: da9f f253 6d48 123f
